src/model.pth (torch_old, 5359 bytes, 5 tensors)

fc.weight f4 [30, 3]
-0.009001968 -0.027559357 -0.026112169 -0.010092129 -0.011625357 0.00068665907 0.1773833 0.100529045
-1.256827 -0.012492931 -0.027900463 -0.039080814 -0.015325277 -0.003764648 -0.00886063 1.2659439
0.058242735 -0.1402601 0.16580458 -0.64279836 -0.31875357 0.00028477868 -5.3731783e-05 0.00010809461
0.00073188083 0.0007013204 -0.00020401423 0.8413956 0.030386323 -0.0638695 -0.020592395 -0.015224613
0.009646761 -0.033085264 -0.014244972 -0.0037321486 -0.00025759055 -0.000212926 0.00033552322 -0.0053335004
0.001182469 -0.007657714 -0.0022141973 -0.0042827344 -0.0023807706 -0.00016835707 0.050674926 -2.1604326
-0.013713007 -0.0032795158 -0.004346384 0.070120305 -0.44745222 -0.15540387 -0.25717637 0.21408622
0.010387532 0.61025363 -0.7922305 -0.044817273 0.5931235 0.06464051 -0.9582173 0.3280445
0.031106949 -0.44664967 -0.02324071 -0.02400701 -0.022454647 -0.0035189162 -0.0062014144 -0.0126326885
0.6777954 0.016501995 0.28921708 -0.0007251391 0.3276597 -0.024819374 -0.02557143 0.004564855
-0.85763586 0.52271736 -0.5121726 -0.036168348 1.1683193 0.089162454 -0.43128142 0.54574174
-0.016489526 0.45907527
00000000: fe7c 13bc 29c4 e1bc 30e9 d5bc 7559 25bc
00000010: 4878 3ebc e900 343a f8a3 353e 2ce2 cd3d
00000020: b5df a0bf 27af 4cbc 838f e4bc 3413 20bd
00000030: df16 7bbc 50b8 76bb 2d2c 11bc 730a a23f
00000040: ef8f 6e3d 58a0 0fbe adc8 293e 6f8e 24bf
00000050: ab33 a3be 594e 9539 105e 61b8 dab0 e238
00000060: b1db 3f3a d1d8 373a a7ec 55b9 b465 573f
00000070: bdec f83c 03ce 82bd 62b1 a8bc a870 79bc
00000080: 730d 1e3c 6a84 07bd be63 69bc 1097 74bb
00000090: 380d 87b9 e344 5fb9 2ae9 af39 a5c4 aebb
000000a0: 13fd 9a3a 90ed fabb 111c 11bb 2e56 8cbb
000000b0: b406 1cbb 0289 30b9 8390 4f3d 8744 0ac0
000000c0: 85ac 60bc 25ed 56bb 1d6c 8ebb 3c9b 8f3d
000000d0: 7518 e5be 3122 1fbe 9fac 83be 6b39 5b3e
000000e0: 7830 2a3c 9539 1c3f 9ecf 4abf 5192 37bd
000000f0: f1d6 173f 3e62 843d bb4d 75bf 73f5 a73e
00000100: 00d4 fe3c 44af e4be 4d63 bebc 59aa c4bc
00000110: cff2 b7bc 9e9d 66bb 3c35 cbbb 56f9 4ebc
00000120: 0084 2d3f 312f 873c 4314 943e 4317 3eba
00000130: 03c3 a73e 0052 cbbc 2d7b d1bc c794 953b
00000140: 068e 5bbf ced0 053f be1d 03bf 4325 14bd
00000150: 7d8b 953f ce9a b63d ebd0 dcbe bbb5 0b3f
00000160: 0b15 87bc ea0b eb3e

fc.bias f4 [30]
-0.020380497 -0.008726462 0.0024419024 -0.035439834 -0.019263102 -0.27689618 0.15133236 -0.0004963604
-0.0023388583 -0.06351631 -0.020380294 -0.030734094 -0.0007721228 -0.0055993367 -0.0033263848 0.076301485
-0.013277582 0.2206539 -0.015258097 -0.13052508 0.06692626 0.09759071 -0.039930698 -0.026560484
-0.6575339 -0.23928928 0.2997073 -0.07708315 -0.46229345 -0.47866026
00000000: 00f5 a6bc 6ff9 0ebc 5308 203b 5c29 11bd
00000010: a7cd 9dbc 56c5 8dbe dff6 1a3e 2f1e 02ba
00000020: 8847 19bb d714 82bd 93f4 a6bc 11c6 fbbc
00000030: 4968 4aba a47a b7bb 7aff 59bb f443 9c3d
00000040: 378a 59bc 19f3 613e 19fd 79bc 5ea8 05be
00000050: a310 893d a3dd c73d 5f8e 23bd 5f95 d9bc
00000060: 2454 28bf 4008 75be 3c73 993e c5dd 9dbd
00000070: bab1 ecbe f512 f5be

fc_1.weight f4 [30, 30]
-0.029072843 -0.0067626964 0.35486457 -0.0066180644 0.006261389 0.14065504 -0.28911415 0.00033169912
-0.00020746473 -0.0004772817 0.019107647 -0.0109809665 -4.2759355e-05 -0.006956103 0.0008161781 0.73962915
0.0066215624 -0.12862158 -0.09038159 0.031514026 0.40224627 0.07404178 0.0015862564 0.00074472267
0.09475596 -0.021127418 0.45387962 0.026695836 0.2355248 -0.2152381 0.0076066623 0.00045320854
0.012390076 0.002259321 0.00083808566 -0.030923074 0.016057065 3.3210938e-06 8.2355764e-05 -0.05169567
0.0006791822 0.0010473678 1.0355881e-05 -0.0002931739 0.00023764957 0.02346859 0.00042901112 -0.027036931
-0.023689035 0.017613823 -0.014039035 -0.030477831 0.0021434173 -5.31873e-05 0.015153872 -0.031486943
-0.039187234 0.012015556 0.026418727 -0.028637504 0.023067202 -0.0073732757 -0.54605734 -0.024036003
0.010432101 0.20762444 -0.13015808 0.00046784012 -0.0009692286 0.124455415 0.014693137 0.00093885127
5.5625105e-06 0.008717571 0.00017538242 -0.07834709 0.0029240658 -0.2390532 -0.032414977 0.009859681
0.4996511 0.11517285 -0.006265196 -0.0008212928 -0.074811764 -0.011751479 0.1400713 0.078948066
0.21038482 -0.5237075 0.000441987 1.6489703e-05 -4.5227316e-05 8.318164e-05 3.2870208e-05 -0.005440451
7.213554e-05 3.74324e-07 2.535307e-06 -0.003281854 2.3435538e-05 4.798653e-05 8.217693e-07 1.6732618e-05
7.5389457e-06 0.0002395659 1.937754e-05 -0.0027891588 -0.0026638443 0.00039973637 0.0027758768 0.00038762263
7.7382734e-05 4.689135e-05 0.00043489927 0.00024705584 -0.0009883641 8.11228e-05 -2.6234899e-05 0.0003230764
9.832047e-05 9.569585e-06 -0.001489048 9.057332e-06 7.412265e-06 -0.016047044 -0.00063197885 3.2526412e-08
-1.125604e-06 -0.015278967 1.6318849e-05 1.758114e-05 5.75005e-07 1.5200563e-05 3.3845622e-06 -0.0012360419
6.891669e-06 0.0013302453 0.00024006651 -0.00081204413 -0.0074390923 -0.007449712 1.5193096e-05 3.6833223e-06
-0.0024623137 -0.0010665184 -0.0023482093 -0.0033745319 -0.0065709576 -0.010770537 -8.8498055e-05 -1.4335798e-05
-0.0007223166 -5.385178e-05 -2.4464158e-05 -0.0042138486 -0.00019636993 -5.864672e-07 -2.5058143e-06 -0.00525684
-2.4801851e-05 -3.2868385e-05 -5.2003935e-07 -4.1209832e-06 -7.853857e-06 -0.0010395743 -1.227298e-05 0.0016709596
0.003917832 -0.00032997687 -0.0008431076 0.00021421199 -5.1849955e-05 -2.2618875e-05 -0.00013810825 0.0006596932
0.0012139498 5.871144e-05 0.00019533734 0.0008267712 0.00015927789 0.0002754933 -0.026971508 0.0012884728
0.0004825635 -0.0041800914 0.0001425731 2.8410403e-05 3.430285e-05 -0.0062371655 0.0005575139 0.0006702006
1.2286769e-05 1.8125733e-05 0.00012249147 -0.013937176 0.00034591992 -0.020033453 -0.024652805 0.008168024
-0.03629883 -0.04022532 0.0012012032 3.0863575e-05 0.015891733 -0.012724428 -0.032545812 0.0068168575
-0.033997733 0.04057494 0.0014228062 -1.1476215e-05 0.0025288097 -0.00012369265 -4.115412e-05 -0.012103605
-2.8406823e-05 -2.9503506e-06 6.288971e-07 -0.0179352 -4.0528914e-05 -6.561883e-05 -8.3161797e-07 -7.9931124e-05
-1.7248416e-06 0.0004968885 -5.7858644e-05 -0.003621116 -0.012302325 -0.00041721042 0.007874843 -0.006271357
-0.000101139245 -7.202843e-05 -0.0003753128 -0.001595468 -0.009726496 -0.0017245737 0.001050732 -0.004596175
0.021565203 -0.005263024 0.5197388 -0.0055668196 0.0012311568 -0.08925679 0.031583432 -0.0001605357
-0.00021181462 -0.0827852 -0.011200587 0.013784303 -0.00019809614 0.0012203767 -0.00076893205 0.9543164
00000000: 2c2a eebc 9c99 ddbb cfb0 b53e 59dc d8bb
00000010: 562c cd3b e007 103e c506 94be e7e7 ad39
00000020: e48a 59b9 aa3b fab9 a487 9c3c 83e9 33bc
00000030: 8258 33b8 05f0 e3bb c9f4 553a 5658 3d3f
00000040: b1f9 d83b 60b5 03be fc19 b9bd da14 013d
00000050: 39f3 cd3e 37a3 973d efe9 cf3a 7e39 433a
00000060: 6a0f c23d 6813 adbc e962 e83e 3ab1 da3c
00000070: 6a2d 713e 6067 5cbe 4f41 f93b 9f9c ed39
00000080: bfff 4a3c 1e11 143b fab2 5b3a 6352 fdbc
00000090: 1b8a 833c f5df 5e36 6ab6 ac38 d7be 53bd
000000a0: 250b 323a d547 893a 2cbe 2d37 23b5 99b9
000000b0: 9231 7939 3341 c03c e6ec e039 8e7c ddbc
000000c0: 820f c2bc dd4a 903c fb03 66bc a5ac f9bc
000000d0: 9378 0c3b 6e15 5fb8 f247 783c 74f8 00bd
000000e0: cb82 20bd e5dc 443c 166c d83c 3399 eabc
000000f0: 6ef7 bc3c 859b f1bb 6aca 0bbf 27e7 c4bc
00000100: 67eb 2a3c 809b 543e 2948 05be 7048 f539
00000110: d513 7eba 7be2 fe3d 7cbb 703c 3e1d 763a
00000120: 9aa5 ba36 25d4 0e3c dce6 3739 7074 a0bd
00000130: afa1 3f3b 5dca 74be 91c5 04bd 808a 213c
00000140: 45d2 ff3e bedf eb3d 464c cdbb 074c 57ba
00000150: e936 99bd 4689 40bc da6e 0f3e 86af a13d
00000160: 1e6f 573e b211 06bf 7eba e739 5e53 8a37
00000170: 76b2 3db8 ce71 ae38 1ede 0938 d045 b2bb
00000180: 7947 9738 b3f6 c834 3e24 2a36 6014 57bb
00000190: 6f97 c437 2545 4938 8e97 5c35 065d 8c37
000001a0: 0df7 fc36 fb33 7b39 f38c a237 52ca 36bb
000001b0: e493 2ebb b593 d139 7ceb 353b d439 cb39
000001c0: 8a48 a238 34ad 4438 3103 e439 4687 8139
000001d0: ff8b 81ba 7920 aa38 0413 dcb7 9562 a939
000001e0: 6731 ce38 0e8d 2037 292c c3ba f2f4 1737
000001f0: dfb6 f836 1775 83bc 62ab 25ba 2bb3 0b33
00000200: 7513 97b5 a254 7abc 76e4 8837 367b 9337
00000210: 0b5a 1a35 ec05 7f37 5622 6336 af02 a2ba
00000220: fc3e e736 a05b ae3a 5dba 7b39 5cdf 54ba
00000230: a1c3 f3bb b71c f4bb dae5 7e37 ff2e 7736
00000240: c55e 21bb 6bca 8bba 6ae4 19bb 4027 5dbb
00000250: 3051 d7bb e876 30bc 0898 b9b8 c983 70b7
00000260: d959 3dba e9de 61b8 6138 cdb7 5314 8abb
00000270: a7e8 4db9 b86d 1db5 9029 28b6 9241 acbb
00000280: 920d d0b7 29dc 09b8 d598 0bb5 fa46 8ab6
00000290: 0fc4 03b7 5342 88ba 0ce8 4db7 1a04 db3a
000002a0: 2861 803b bf00 adb9 fe03 5dba 189e 6039
000002b0: 7779 59b8 aabd bdb7 27d1 10b9 43ef 2c3a
000002c0: 651d 9f3a ee40 7638 78d3 4c39 adbb 583a
000002d0: d503 2739 1670 9039 5af3 dcbc f9e1 a83a
000002e0: 9400 fd39 26f9 88bb ad7f 1539 e052 ee37
000002f0: 68e0 0f38 2361 ccbb 2026 123a 67b0 2f3a
00000300: 4523 4e37 b70c 9837 0e71 0039 c158 64bc
00000310: 965c b539 321d a4bc aef4 c9bc 2dd3 053c
00000320: 15ae 14bd 4ec3 24bd b171 9d3a 8373 0138
00000330: 612f 823c 1f7a 50bc c24e 05bd f25f df3b
00000340: 3541 0bbd e931 263d 747d ba3a f889 40b7
00000350: 63ba 253b 7eb3 01b9 e69c 2cb8 334e 46bc
00000360: 304b eeb7 a3fe 45b6 7bd1 2835 d7ec 92bc
00000370: 97fd 29b8 d79c 89b8 5a3c 5fb5 b2a0 a7b8
00000380: 1b81 e7b5 9f41 023a 3fad 72b8 3f50 6dbb
00000390: b18f 49bc 09bd dab9 7c05 013c f57f cdbb
000003a0: b81a d4b8 f80d 97b8 a2c5 c4b9 061f d1ba
000003b0: e25b 1fbc 170b e2ba b7b8 893a 839b 96bb
000003c0: 82a9 b03c 7275 acbb 9a0d 053f de69 b6bb
000003d0: c45e a13a 44cc b6bd a15d 013d 7955 28b9
000003e0: 8e1a 5eb9 498b a9bd ab82 37bc 8fd7 613c
000003f0: 07b8 4fb9 0cf5 9f3a 2892 49ba 144e 743f

fc_1.bias f4 [30]
-0.36483234 -0.03836138 -0.3163348 -0.0048163487 -0.00096921873 -0.0018026866 -0.034841787 -0.015384215
-0.3310264 -0.1587285 -0.4018265 -0.012818238 -0.32981148 -0.008892123 -0.02936418 -0.015485664
-0.059919924 -0.0010893532 -0.071458496 -0.01754174 -0.13314044 -0.015235024 0.0812887 -0.0042132717
-0.0041021304 -0.02686543 -0.00078359735 -0.0899583 -0.009958203 -0.012129135
00000000: 4ecb babe d320 1dbd a3f6 a1be 76d2 9dbb
00000010: 2b13 7eba 2048 ecba 43b6 0ebd 130e 7cbc
00000020: 4b7c a9be b989 22be 34bc cdbe 9603 52bc
00000030: 0ddd a8be 44b0 11bc 268d f0bc 95b7 7dbc
00000040: 986e 75bd a1c8 8eba d558 92bd b2b3 8fbc
00000050: f855 08be 529c 79bc b17a a63d 7c0f 8abb
00000060: 2a6b 86bb e414 dcbc 546a 4dba 0f3c b8bd
00000070: bb27 23bc 48b9 46bc

fc_2.weight f4 [1, 30]
0.17880842 0.034776315 0.15357484 -0.0026855073 0.000203072 -0.00034807957 0.0006560486 0.0058368365
0.30362764 0.15442681 0.20989813 -0.010609513 -0.08122608 -0.008939616 -0.010644115 -0.0013902261
0.16415289 4.851685e-06 0.026289193 0.016135696 0.18370084 -0.022307979 -0.057476185 0.00010514586
-0.0011426036 0.17674363 4.0019833e-05 -0.13182607 0.008752322 0.004541265
00000000: 8e19 373e 9c71 0e3d b942 1d3e 56ff 2fbb
00000010: baef 5439 737e b6b9 adfa 2b3a ef42 bf3b
00000020: 1575 9b3e 1022 1e3e 89ef 563e 86d3 2dbc
00000030: dc59 a6bd 7877 12bc a764 2ebc 3f38 b6ba
00000040: b217 283e a8cb a236 6f5c d73c 022f 843c
00000050: 131c 3c3e 39bf b6bc 266c 6bbd c181 dc38
00000060: 6ac3 95ba 48fc 343e f8da 2738 6afd 06be
00000070: e665 0f3c e4ce 943b
