src/model.pth (torch_old, 5692 bytes, 6 tensors)

fc.weight f4 [30, 3]
-0.9110959 0.40231735 -0.04907781 -0.7636125 0.93711305 -0.076970674 -1.06833 -0.22253929
-0.04645071 -0.7596744 0.18155111 -0.042875655 0.0249666 0.77362865 -0.004785993 0.6715426
-1.187983 0.11276265 1.2745907 0.12264965 0.14447053 -0.6193938 1.0792412 -0.07888674
1.0197619 0.67419934 0.05819163 -1.1881915 0.24589506 -0.11560599 0.19771545 0.5720271
0.011577312 1.2096192 0.15087384 0.10606423 1.322583 0.47898364 0.10000372 0.6995856
-0.5266696 0.044195946 -0.4431066 0.75526303 -0.024934936 -0.50869125 -0.39846623 -0.021620693
0.8919497 0.12568195 0.048610896 -0.314142 1.1383783 -0.05642464 -1.2539732 -0.23567614
-0.118829526 1.1531495 0.25844347 0.07470732 -0.028123174 -0.717168 0.004176305 -0.12516333
0.24261707 0.0004293218 -0.6174171 -0.20101014 -0.031574823 -1.0920261 0.35987467 -0.077080056
0.5677284 -1.1524847 0.06007854 -1.2830521 -0.42547366 -0.105708785 -0.2507543 -0.5366355
-0.005418615 -1.0715731 0.7046483 -0.08048505 0.6216694 -0.75229865 0.034732066 -0.22647719
-0.7996139 -0.0066924826
00000000: 953d 69bf 8afc cd3e d005 49bd 1c7c 43bf
00000010: a4e6 6f3f cda2 9dbd 0abf 88bf 57e1 63be
00000020: 1a43 3ebd 057a 42bf 89e8 393e 629e 2fbd
00000030: c186 cc3c 870c 463f d2d3 9cbb 37ea 2b3f
00000040: d40f 98bf 1bf0 e63d ca25 a33f bd2f fb3d
00000050: 15f0 133e 9890 1ebf 9324 8a3f 5f8f a1bd
00000060: 8f87 823f 5498 2c3f 595a 6e3d a916 98bf
00000070: eacb 7b3e d5c2 ecbd eb75 4a3e 5e70 123f
00000080: c4ae 3d3c cdd4 9a3f ac7e 1a3e 3438 d93d
00000090: 664a a93f 583d f53e c0ce cc3d 0b18 333f
000000a0: d2d3 06bf cf06 353d dede e2be eb58 413f
000000b0: 5a44 ccbc 9739 02bf c403 ccbe e11d b1bc
000000c0: d156 643f c5b2 003e 381c 473d 38d7 a0be
000000d0: 61b6 913f 861d 67bd 3282 a0bf 1655 71be
000000e0: e55c f3bd 679a 933f b452 843e 2700 993d
000000f0: 9262 e6bc 5298 37bf 63d9 883b d12a 00be
00000100: 9c70 783e 9916 e139 0c0f 1ebf 9ad5 4dbe
00000110: 9a54 01bd 83c7 8bbf 7e41 b83e 26dc 9dbd
00000120: a656 113f 9e84 93bf ea14 763d 0d3b a4bf
00000130: afd7 d9be d97d d8bd de62 80be f260 09bf
00000140: a38e b1bb 4f29 89bf d563 343f 59d5 a4bd
00000150: ba25 1f3f a596 40bf 3643 0e3d a3e9 67be
00000160: 7fb3 4cbf 9d4c dbbb

fc.bias f4 [30]
-0.18995595 0.14156447 0.04450858 0.6242226 -0.3369935 -0.25003076 -0.6177208 0.2492723
-0.37475404 0.5040046 -0.42114118 -0.2524465 -0.50194883 0.15854071 -0.3671642 0.021076936
-0.09892971 -0.027115846 0.37724158 -0.3132157 0.44242394 0.4441075 0.034942985 -0.0541031
0.09291328 0.47678012 -0.28694835 0.8031239 0.34140673 0.63878834
00000000: d083 42be 47f6 103e a14e 363d 0dcd 1f3f
00000010: 698a acbe 0804 80be f322 1ebf 3d41 7f3e
00000020: c3df bfbe 7206 013f d19f d7be ab40 81be
00000030: b87f 00bf 7f58 223e f2fc bbbe 8aa9 ac3c
00000040: a99b cabd 0d22 debc cf25 c13e cf5d a0be
00000050: 6485 e23e 0f62 e33e 6020 0f3d 369b 5dbd
00000060: 5149 be3d 861c f43e e5ea 92be 8799 4d3f
00000070: ddcc ae3e a287 233f

fc_1.weight f4 [30, 30]
-0.02821435 -0.2730171 -0.048946586 0.3993889 -0.61720484 0.1258225 -0.5470564 -0.040890668
-0.26070136 0.56055236 -0.55484146 -0.07695874 -0.49779156 0.04048985 -0.35387796 0.12370101
0.032514125 -0.29967752 0.3402386 -0.34835792 0.41828266 0.26565498 0.13899532 -0.21002932
0.23372345 0.50710875 0.08515376 0.36768597 0.33212408 0.3073596 -0.47387034 -0.2050471
-0.12805547 0.25648564 -0.10440548 0.009415169 0.20998934 0.14144124 0.24269179 -0.21645564
-0.5717953 0.41002616 0.20808898 0.46881002 -0.60809964 -0.23199823 0.16065249 -0.035118163
-0.3592512 0.118078366 0.5498002 0.25467244 -0.2850587 -0.543448 0.17499442 -0.33563384
-0.30166146 0.1935547 0.4329816 0.36548436 -0.81948674 -0.4093623 -0.7589039 -0.10149204
-0.050596353 0.18358453 0.9185653 -0.2823665 0.7208876 -0.81002665 -0.08950188 1.3506956
1.2617762 0.7901833 -0.3472199 -0.21970737 0.7378187 -0.06548729 -1.5354196 0.9115984
0.06323757 0.25474533 -0.49772105 -1.3009688 0.27193606 -1.0312781 -0.3865016 -0.26974443
0.6179176 0.15883972 -0.16850959 -0.38877892 -0.17228314 -0.1680934 0.34844244 0.3487215
1.285412 -0.076609425 0.55980235 -0.9550142 0.6916597 0.7150489 0.7271545 -0.1370974
0.17404905 -0.109323174 0.34576228 0.20400485 -0.9106612 0.54654807 -0.20405903 -0.2280595
-0.14645776 -0.069870375 0.05816835 -0.8352717 -0.05997443 -0.4984935 -0.2119515 -0.5002605
0.11965204 0.64701515 0.13257529 0.6064339 -0.18846352 -0.6194373 -1.0641812 0.42699116
-0.48011807 1.0399413 -0.03321362 -0.67836654 -0.42405483 -0.20136334 0.06425757 0.13793291
0.033635873 0.48525453 0.78678447 -0.5230654 -0.01875077 0.33744946 -0.02300335 0.20147063
-0.45622262 0.7972235 0.021552706 0.6157164 -0.07207535 0.20561269 -0.066603445 -0.7119944
-0.043033622 -0.25942197 -0.35345072 2.0806553 0.303855 -1.3327739 -0.05476669 -0.3732132
0.08176253 0.024759918 0.0049430397 0.10562846 -0.19525346 0.14265385 0.10103627 -1.1354508
-0.020569716 -0.03890902 0.16400145 -0.20973094 0.18011062 -0.29361475 0.5641899 0.06923727
0.25512862 -0.781253 0.09917246 0.03532391 0.42467242 0.100396484 0.19942084 -0.090349674
0.018828867 0.0106506515 -0.39484438 -0.013204524 -0.21831198 0.3204795 0.107192226 -0.47896576
-0.43807188 -0.31674355 0.009948386 0.20742817 -0.1588255 -0.055223614 0.5242917 -0.25243294
-0.2202136 -0.32527357 0.24982849 0.25750113 0.089365706 0.67020196 0.32893878 -0.0069214944
-0.34458354 -0.24718153 -0.027930487 0.3596368 -0.068907596 0.35424894 -0.05615963 -0.29789412
-0.22872773 0.3973543 0.24443741 0.31103316 -0.12615207 0.09165287 -0.07019586 -0.060109302
0.08324535 -0.07744847 0.18496583 0.11148151 0.14148295 -0.12880115 -0.013839377 0.25919798
-0.0022109041 0.004138641 -0.27543452 -0.1910406 -0.22044012 0.2786525 -0.06727787 0.20927271
-0.034215286 -0.8273651 0.10004901 -0.19341744 -0.7169145 3.1852176 0.35109767 -1.637548
-0.16208579 -0.57202184 -0.10935904 0.009727777 0.04253572 -0.008525292 -0.3242212 0.14226928
00000000: c821 e7bc e6c8 8bbe 377c 48bd b47c cc3e
00000010: 2301 1ebf 9dd7 003e e30b 0cbf f97c 27bd
00000020: a67a 85be 5c80 0f3f 170a 0ebf 8b9c 9dbd
00000030: 89de febe afd8 253d 7e2f b5be f556 fd3d
00000040: 882d 053d 556f 99be c133 ae3e f85b b2be
00000050: 2529 d63e ee03 883e ca54 0e3e ed11 57be
00000060: 3355 6f3e e1d1 013f 1865 ae3d 5641 bc3e
00000070: 2b0c aa3e 3d5e 9d3e 229f f2be def7 51be
00000080: f920 03be 1652 833e 8ad2 d5bd 1542 1a3c
00000090: 7207 573e f9d5 103e 3284 783e 8ca6 5dbe
000000a0: 2d61 12bf f3ee d13e 4715 553e de07 f03e
000000b0: 6bac 1bbf f290 6dbe 1682 243e 10d8 0fbd
000000c0: c6ef b7be 12d3 f13d b5bf 0c3f 6d64 823e
000000d0: 37f3 91be 681f 0bbf bd31 333e 33d8 abbe
000000e0: 5f73 9abe 3433 463e c4af dd3e c420 bb3e
000000f0: e2c9 51bf ef97 d1be 8747 42bf 0fdb cfbd
00000100: 1f3e 4fbd 95fd 3b3e 1827 6b3f 5892 90be
00000110: 178c 383f e85d 4fbf c34c b7bd 98e3 ac3f
00000120: e281 a13f 7449 4a3f cfc6 b1be f8fa 60be
00000130: b0e1 3c3f 331e 86bd a188 c4bf 835e 693f
00000140: b382 813d fb6d 823e 4bd5 febe 2586 a6bf
00000150: 343b 8b3e ec00 84bf 8ae3 c5be f11b 8abe
00000160: d92f 1e3f e1a6 223e c78d 2cbe 080e c7be
00000170: fe6a 30be ad20 2cbe 0c67 b23e a08b b23e
00000180: 6188 a43f 67e5 9cbd 354f 0f3f d07b 74bf
00000190: 9c10 313f 720d 373f cc26 3a3f 4363 0cbe
000001a0: ea39 323e d4e4 dfbd c107 b13e a6e6 503e
000001b0: 1821 69bf 93ea 0b3f daf4 50be 6e88 69be
000001c0: 06f9 15be 3318 8fbd f041 6e3d 5ed4 55bf
000001d0: bfa7 75bd 8a3a ffbe d009 59be 1211 00bf
000001e0: 210c f53d c9a2 253f d1c1 073e 413f 1b3f
000001f0: 95fc 40be 7193 1ebf 1737 88bf 969e da3e
00000200: 09d2 f5be cc1c 853f 010b 08bd 6ea9 2dbf
00000210: b71d d9be 3132 4ebe 7999 833d 493e 0d3e
00000220: c5c5 093d 4873 f83e b56a 493f 9de7 05bf
00000230: 379b 99bc 2dc6 ac3e 8571 bcbc 514e 4e3e
00000240: 0396 e9be d716 4c3f 4d8f b03c 979f 1d3f
00000250: 3e9c 93bd 228c 523e 6367 88bd 4445 36bf
00000260: 0644 30bd f5d2 84be 7ef7 b4be 7529 0540
00000270: e292 9b3e 5698 aabf 0953 60bd cd15 bfbe
00000280: 1d73 a73d 50d5 ca3c 39f9 a13b bc53 d83d
00000290: 86f0 47be da13 123e 1bec ce3d 7456 91bf
000002a0: d281 a8bc 115f 1fbd ffef 273e b5c3 56be
000002b0: eb6e 383e ac54 96be c06e 103f 45cc 8d3d
000002c0: 38a0 823e 3200 48bf ee1a cb3d ceaf 103d
000002d0: aa6e d93e ac9c cd3d fa34 4c3e 4009 b9bd
000002e0: ff3e 9a3c 1280 2e3c 0b29 cabe ca57 58bc
000002f0: 2d8d 5fbe e415 a43e 9987 db3d 003b f5be
00000300: f54a e0be 362c a2be 8efe 223c 0d68 543e
00000310: 27a3 22be 2832 62bd fb37 063f e43e 81be
00000320: ad7f 61be 428a a6be 0ad3 7f3e 30d7 833e
00000330: 5e05 b73d 5b92 2b3f aa6a a83e b4cd e2bb
00000340: 416d b0be 281d 7dbe 7ace e4bc 5122 b83e
00000350: 6d1f 8dbd 1e60 b53e a407 66bd 9485 98be
00000360: 9a37 6abe 0672 cb3e cd4d 7a3e bd3f 9f3e
00000370: 022e 01be 80b4 bb3d d9c2 8fbd 2c35 76bd
00000380: 8a7c aa3d 4e9d 9ebd af67 3d3e 6b50 e43d
00000390: e8e0 103e 73e4 03be 8ebe 62bc 99b5 843e
000003a0: d1e4 10bb 709d 873b c105 8dbe 26a0 43be
000003b0: 0ebb 61be 8aab 8e3e fbc8 89bd 964b 563e
000003c0: 5425 0cbd 33ce 53bf 7fe6 cc3d 390f 46be
000003d0: b587 37bf 9bda 4b40 13c3 b33e 2c9b d1bf
000003e0: d1f9 25be 0670 12bf a2f7 dfbd 4161 1f3c
000003f0: ef39 2e3d abad 0bbc 5200 a6be 0aaf 113e

fc_1.bias f4 [30]
0.28355697 0.3898393 -0.026328834 -0.32668155 0.46874186 0.010602651 -0.0105084535 0.3710854
-0.30789697 0.2788476 0.13572729 -0.16877423 -0.2388736 0.015357251 -0.31864944 0.24086821
0.008863832 0.2619087 0.4283678 0.016710706 -0.18443936 -0.42748997 -0.07036146 -0.20117687
0.31844875 -0.29774743 0.45416373 0.08390364 0.06913767 -0.21315317
00000000: 612e 913e 0499 c73e 91af d7bc ce42 a7be
00000010: effe ef3e beb6 2d3c a62b 2cbc e8fe bd3e
00000020: aca4 9dbe 1dc5 8e3e 18fc 0a3e 27d3 2cbe
00000030: 489b 74be fb9c 7b3c 0526 a3be 28a6 763e
00000040: 9b39 113c e618 863e 0653 db3e e4e4 883c
00000050: acdd 3cbe f7df dabe ab19 90bd 4f01 4ebe
00000060: b70b a33e 5a72 98be 2688 e83e acd5 ab3d
00000070: 0d98 8d3d d344 5abe

fc_2.weight f4 [4, 30]
0.39725223 -0.69689894 -2.4494643 -0.8461077 0.6454589 -0.030619461 0.8155537 -0.13526377
-0.1646058 0.20060273 -0.761265 2.3645816 -0.093167655 0.30152723 -0.42135835 0.8529301
-0.07625697 0.9118481 0.5102161 0.43782684 -0.18402068 -0.8434063 -0.82904667 -0.71789557
0.9274472 0.22534953 0.6623058 -0.6759614 -0.13284734 -0.39149055 0.0048873588 0.04857076
0.2817851 0.19294946 -0.61717653 1.2993203 0.029470483 -0.28054208 1.9398897 -0.4500447
-0.02890945 -0.0015267167 1.4532951 0.33884984 0.57576513 -0.23729768 0.12774472 -0.37134558
-0.43376446 -0.61514974 1.2382461 0.30961588 0.37044993 -0.056671225 -0.27127537 0.08041963
-0.39199233 0.23283525 1.1322674 0.66390324 -0.33710724 0.11147932 0.29540306 0.34037492
-0.27659374 0.03642665 -0.21935551 0.08834816 -0.1559153 -0.20478098 0.27251017 -0.12760448
-0.25920334 -0.14896865 0.22129203 -0.5301794 -0.21852076 -0.27541775 -0.42744038 -0.34764612
-0.16040707 0.49411064 0.11643341 0.23175718 -0.48760614 0.030500729 -0.29697472 0.020334633
-0.25963625 0.29036015 0.43961972 0.33736828 -0.16925786 -0.6364287 0.49550307 -0.10492857
-0.09858447 0.35837063 -0.24322423 0.124056 0.14412872 0.034374587 -0.2871209 0.0106577305
-0.3579817 0.68732566 -0.17339161 0.33323812 0.57888734 0.14224151 -0.19135882 -0.67624736
-0.47583932 -0.29065618 0.6551088 -0.11236368 0.5252502 -0.14405681 -0.11748049 -0.3464879
00000000: a564 cb3e f867 32bf 06c4 1cc0 849a 58bf
00000010: cb3c 253f aad5 fabc 21c8 503f 9682 0abe
00000020: 6c8e 28be cd6a 4d3e 43e2 42bf 4e55 1740
00000030: afce bebd c761 9a3e 48bc d7be a159 5a3f
00000040: 9d2c 9cbd e16e 693f 869d 023f d72a e03e
00000050: eb6f 3cbe 7ae9 57bf 673c 54bf 01c8 37bf
00000060: 2e6d 6d3f 07c2 663e df8c 293f ce0b 2dbf
00000070: 2209 08be 7371 c8be 2326 a03b 22f2 463d
00000080: 2346 903e 8b94 453e 48ff 1dbf 2150 a63f
00000090: 156c f13c 36a3 8fbe 4e4e f83f 426c e6be
000000a0: 83d3 ecbc 1d1c c8ba 9305 ba3f ba7d ad3e
000000b0: 5865 133f 2afe 72be 83cf 023e 0221 bebe
000000c0: 6016 debe 747a 1dbf d97e 9e3f f985 9e3e
000000d0: 9dab bd3e 1620 68bd 9be4 8abe 0cb3 a43d
000000e0: 38b3 c8be 5d6c 6e3e 23ee 903f 90f5 293f
000000f0: 5299 acbe 454f e43d 123f 973e 9f45 ae3e
00000100: b29d 8dbe 1c34 153d bb9e 60be e1ef b43d
00000110: 43a8 1fbe 1bb2 51be 7486 8b3e c0aa 02be
00000120: 4db6 84be 3d8b 18be 619a 623e d6b9 07bf
00000130: e8c3 5fbe 8e03 8dbe 77d9 dabe acfe b1be
00000140: c041 24be 12fc fc3e a474 ee3d c151 6d3e
00000150: 83a7 f9be aadc f93c 120d 98be d194 a63c
00000160: 0bef 84be 16aa 943e d615 e13e 89bb ac3e
00000170: ef51 2dbe feec 22bf 94b2 fd3e cae4 d6bd
00000180: a8e6 c9bd 5b7c b73e c60f 79be 1211 fe3d
00000190: 7b96 133e 5ecc 0c3d 8301 93be c39d 2e3c
000001a0: 6149 b7be 93f4 2f3f 928d 31be 309e aa3e
000001b0: f631 143f c2a7 113e 91f3 43be 8c1e 2dbf
000001c0: 36a1 f3be e3d0 94be 36b5 273f ee1e e6bd
000001d0: cc76 063f a183 13be 9c99 f0bd dd66 b1be

fc_2.bias f4 [4]
-0.2690659 -0.14043882 -0.08286472 0.526533
00000000: 01c3 89be 32cf 0fbe fab4 a9bd deca 063f
